…
t:8080/"},"executionInfo":{"status":"ok","timestamp":1623601673572,"user_tz":-120,"elapsed":236,"user":{"displayName":"李家豪","photoUrl":"","userId":"12707707332400212763"}},"outputId":"f4ebe73f-2bf3-440d-e46a-1bf82b44258f"},"source":["model = EncDec().to(device)\n","summary(model, (3, 256, 256))"],"execution_count":null,"outputs":[{"output_type":"stream","text":["----------------------------------------------------------------\n","        Layer (type)               Output Shape         Param #\n","================================================================\n","            Conv2d-1         [-1, 64, 256, 256]           1,792\n","         MaxPool2d-2         [-1, 64, 128, 128]               0\n","            Conv2d-3         [-1, 64, 128, 128]          36,928\n","         MaxPool2d-4           [-1, 64, 64, 64]               0\n","            Conv2d-5           [-1, 64, 64, 64]          36,928\n","         MaxPool2d-6           [-1, 64, 32, 32]               0\n","            Conv2d-7           [-1, 64, 32, 32]          36,928\n","         MaxPool2d-8           [-1, 64, 16, 16]               0\n","            Conv2d-9           [-1, 64, 16, 16]          36,928\n","         Upsample-10           [-1, 64, 32, 32]               0\n","           Conv2d-11           [-1, 64, 32, 32]          36,928\n","         Upsample-12           [-1, 64, 64, 64]               0\n","           Conv2d-13           [-1, 64, 64, 64]          36,928\n","         Upsample-14         [-1, 64, 128, 128]               0\n","           Conv2d-15         [-1, 64, 128, 128]          36,928\n","         Upsample-16         [-1, 64, 256, 256]               0\n","           Conv2d-17          [-1, 1, 256, 256]             577\n","================================================================\n","Total params: 260,865\n","Trainable params: 260,865\n","Non-trainable params: 0\n","----------------------------------------------------------------\n","Input size (MB): 0.75\n","Forward/backward pass size (MB): 106.75\n","Params size (MB): 1.00\n","Estimated Total Size (MB): 108.50\n","--------------------------------------
…
ost:8080/"},"executionInfo":{"status":"ok","timestamp":1623601689282,"user_tz":-120,"elapsed":213,"user":{"displayName":"李家豪","photoUrl":"","userId":"12707707332400212763"}},"outputId":"db96eee0-7289-4170-befd-75f088a5ba0e"},"source":["model = UNet().to(device)\n","summary(model, (3, 256, 256))"],"execution_count":null,"outputs":[{"output_type":"stream","text":["----------------------------------------------------------------\n","        Layer (type)               Output Shape         Param #\n","================================================================\n","            Conv2d-1         [-1, 64, 256, 256]           1,792\n","         MaxPool2d-2         [-1, 64, 128, 128]               0\n","            Conv2d-3         [-1, 64, 128, 128]          36,928\n","         MaxPool2d-4           [-1, 64, 64, 64]               0\n","            Conv2d-5           [-1, 64, 64, 64]          36,928\n","         MaxPool2d-6           [-1, 64, 32, 32]               0\n","            Conv2d-7           [-1, 64, 32, 32]          36,928\n","         MaxPool2d-8           [-1, 64, 16, 16]               0\n","            Conv2d-9           [-1, 64, 16, 16]          36,928\n","         Upsample-10           [-1, 64, 32, 32]               0\n","           Conv2d-11           [-1, 64, 32, 32]          73,792\n","         Upsample-12           [-1, 64, 64, 64]               0\n","           Conv2d-13           [-1, 64, 64, 64]          73,792\n","         Upsample-14         [-1, 64, 128, 128]               0\n","           Conv2d-15         [-1, 64, 128, 128]          73,792\n","         Upsample-16         [-1, 64, 256, 256]               0\n","           Conv2d-17         [-1, 64, 256, 256]          73,792\n","================================================================\n","Total params: 444,672\n","Trainable params: 444,672\n","Non-trainable params: 0\n","----------------------------------------------------------------\n","Input size (MB): 0.75\n","Forward/backward pass size (MB): 138.25\n","Params size (MB): 1.70\n","Estimated Total Size (MB): 140.70\n","--------------------------------------
…
st:8080/"},"executionInfo":{"status":"ok","timestamp":1623601728068,"user_tz":-120,"elapsed":208,"user":{"displayName":"李家豪","photoUrl":"","userId":"12707707332400212763"}},"outputId":"868c75b1-ce9f-4489-edbb-33c4a5ce87d1"},"source":["model = UNet2().to(device)\n","summary(model, (3, 256, 256))"],"execution_count":null,"outputs":[{"output_type":"stream","text":["----------------------------------------------------------------\n","        Layer (type)               Output Shape         Param #\n","================================================================\n","            Conv2d-1         [-1, 64, 256, 256]           1,792\n","            Conv2d-2         [-1, 64, 128, 128]          65,600\n","            Conv2d-3         [-1, 64, 128, 128]          36,928\n","            Conv2d-4           [-1, 64, 64, 64]          65,600\n","            Conv2d-5           [-1, 64, 64, 64]          36,928\n","            Conv2d-6           [-1, 64, 32, 32]          65,600\n","            Conv2d-7           [-1, 64, 32, 32]          36,928\n","            Conv2d-8           [-1, 64, 16, 16]          65,600\n","            Conv2d-9           [-1, 64, 16, 16]          36,928\n","  ConvTranspose2d-10           [-1, 64, 32, 32]          65,600\n","           Conv2d-11           [-1, 64, 32, 32]          73,792\n","  ConvTranspose2d-12           [-1, 64, 64, 64]          65,600\n","           Conv2d-13           [-1, 64, 64, 64]          73,792\n","  ConvTranspose2d-14         [-1, 64, 128, 128]          65,600\n","           Conv2d-15         [-1, 64, 128, 128]          73,792\n","  ConvTranspose2d-16         [-1, 64, 256, 256]          65,600\n","           Conv2d-17         [-1, 64, 256, 256]          73,792\n","================================================================\n","Total params: 969,472\n","Trainable params: 969,472\n","Non-trainable params: 0\n","----------------------------------------------------------------\n","Input size (MB): 0.75\n","Forward/backward pass size (MB): 138.25\n","Params size (MB): 3.70\n","Estimated Total Size (MB): 142.70\n","--------------------------------------
…
